cuda:0
Soft Q Network (1,2):  SoftQNetwork(
  (batch_norm): BatchNorm2d(3, eps=1e-05, momentum=0.1, affine=True, track_running_stats=True)
  (conv1): Conv2d(3, 64, kernel_size=(2, 2), stride=(1, 1))
  (batchnorm1): BatchNorm2d(64, eps=1e-05, momentum=0.1, affine=True, track_running_stats=True)
  (pooling1): MaxPool2d(kernel_size=3, stride=3, padding=0, dilation=1, ceil_mode=False)
  (conv2): Conv2d(64, 128, kernel_size=(2, 2), stride=(1, 1))
  (batchnorm2): BatchNorm2d(128, eps=1e-05, momentum=0.1, affine=True, track_running_stats=True)
  (pooling2): MaxPool2d(kernel_size=2, stride=2, padding=0, dilation=1, ceil_mode=False)
  (conv_gen1): Conv2d(128, 128, kernel_size=(1, 1), stride=(1, 1))
  (conv3): Conv2d(128, 256, kernel_size=(3, 3), stride=(2, 2))
  (conv_gen2): Conv2d(256, 256, kernel_size=(1, 1), stride=(1, 1))
  (linear1): Linear(in_features=256, out_features=224, bias=True)
  (linear_1): Linear(in_features=6, out_features=64, bias=True)
  (linear_2): Linear(in_features=64, out_features=64, bias=True)
  (linear_3): Linear(in_features=64, out_features=32, bias=True)
  (linear_state_combined): Linear(in_features=256, out_features=512, bias=True)
  (linear_combined_1): Linear(in_features=550, out_features=256, bias=True)
  (linear_combined_2): Linear(in_features=256, out_features=128, bias=True)
  (linear_action_1): Linear(in_features=7, out_features=64, bias=True)
  (linear_action_2): Linear(in_features=64, out_features=38, bias=True)
  (linear_final): Linear(in_features=128, out_features=1, bias=True)
)
Policy Network:  PolicyNetwork(
  (batch_norm): BatchNorm2d(3, eps=1e-05, momentum=0.1, affine=True, track_running_stats=True)
  (conv1): Conv2d(3, 64, kernel_size=(2, 2), stride=(1, 1))
  (batchnorm1): BatchNorm2d(64, eps=1e-05, momentum=0.1, affine=True, track_running_stats=True)
  (pooling1): MaxPool2d(kernel_size=3, stride=3, padding=0, dilation=1, ceil_mode=False)
  (conv2): Conv2d(64, 128, kernel_size=(2, 2), stride=(1, 1))
  (batchnorm2): BatchNorm2d(128, eps=1e-05, momentum=0.1, affine=True, track_running_stats=True)
  (pooling2): MaxPool2d(kernel_size=2, stride=2, padding=0, dilation=1, ceil_mode=False)
  (conv_gen1): Conv2d(128, 128, kernel_size=(1, 1), stride=(1, 1))
  (conv3): Conv2d(128, 256, kernel_size=(3, 3), stride=(2, 2))
  (conv_gen2): Conv2d(256, 256, kernel_size=(1, 1), stride=(1, 1))
  (linear1): Linear(in_features=256, out_features=480, bias=True)
  (linear_1): Linear(in_features=6, out_features=64, bias=True)
  (linear_2): Linear(in_features=64, out_features=64, bias=True)
  (linear_3): Linear(in_features=64, out_features=32, bias=True)
  (linear_combined_1): Linear(in_features=512, out_features=1024, bias=True)
  (linear_combined_2): Linear(in_features=1024, out_features=512, bias=True)
  (mean_linear): Linear(in_features=512, out_features=7, bias=True)
  (log_std_linear): Linear(in_features=512, out_features=7, bias=True)
)
dimensions
3.8544687014629937
7.954452490052819
Parameter
0.20763049760767752
reward distance
0.08719199266746541
dimensions
3.8544687014629937
14.18796184797793
Parameter
0.20763049760767752
reward distance
0.25842966934778927
Episode:  0 | Episode Reward:  -0.7415703306522108
dimensions
3.926340049680744
7.143926837730638
Parameter
0.19521797555471207
…
