
cuda:0
Soft Q Network (1,2):  SoftQNetwork(
  (batch_norm): BatchNorm2d(3, eps=1e-05, momentum=0.1, affine=True, track_running_stats=True)
  (conv1): Conv2d(3, 64, kernel_size=(2, 2), stride=(1, 1))
  (batchnorm1): BatchNorm2d(64, eps=1e-05, momentum=0.1, affine=True, track_running_stats=True)
  (pooling1): MaxPool2d(kernel_size=3, stride=3, padding=0, dilation=1, ceil_mode=False)
  (conv2): Conv2d(64, 128, kernel_size=(2, 2), stride=(1, 1))
  (batchnorm2): BatchNorm2d(128, eps=1e-05, momentum=0.1, affine=True, track_running_stats=True)
  (pooling2): MaxPool2d(kernel_size=2, stride=2, padding=0, dilation=1, ceil_mode=False)
  (conv_gen1): Conv2d(128, 128, kernel_size=(1, 1), stride=(1, 1))
  (conv3): Conv2d(128, 256, kernel_size=(3, 3), stride=(2, 2))
  (conv_gen2): Conv2d(256, 256, kernel_size=(1, 1), stride=(1, 1))
  (linear1): Linear(in_features=256, out_features=224, bias=True)
  (linear_1): Linear(in_features=6, out_features=64, bias=True)
  (linear_2): Linear(in_features=64, out_features=64, bias=True)
  (linear_3): Linear(in_features=64, out_features=32, bias=True)
  (linear_state_combined): Linear(in_features=256, out_features=512, bias=True)
  (linear_combined_1): Linear(in_features=550, out_features=256, bias=True)
  (linear_combined_2): Linear(in_features=256, out_features=128, bias=True)
  (linear_action_1): Linear(in_features=7, out_features=64, bias=True)
  (linear_action_2): Linear(in_features=64, out_features=38, bias=True)
  (linear_final): Linear(in_features=128, out_features=1, bias=True)
)
Policy Network:  PolicyNetwork(
  (batch_norm): BatchNorm2d(3, eps=1e-05, momentum=0.1, affine=True, track_running_stats=True)
  (conv1): Conv2d(3, 64, kernel_size=(2, 2), stride=(1, 1))
  (batchnorm1): BatchNorm2d(64, eps=1e-05, momentum=0.1, affine=True, track_running_stats=True)
  (pooling1): MaxPool2d(kernel_size=3, stride=3, padding=0, dilation=1, ceil_mode=False)
  (conv2): Conv2d(64, 128, kernel_size=(2, 2), stride=(1, 1))
  (batchnorm2): BatchNorm2d(128, eps=1e-05, momentum=0.1, affine=True, track_running_stats=True)
  (pooling2): MaxPool2d(kernel_size=2, stride=2, padding=0, dilation=1, ceil_mode=False)
  (conv_gen1): Conv2d(128, 128, kernel_size=(1, 1), stride=(1, 1))
  (conv3): Conv2d(128, 256, kernel_size=(3, 3), stride=(2, 2))
  (conv_gen2): Conv2d(256, 256, kernel_size=(1, 1), stride=(1, 1))
  (linear1): Linear(in_features=256, out_features=480, bias=True)
  (linear_1): Linear(in_features=6, out_features=64, bias=True)
  (linear_2): Linear(in_features=64, out_features=64, bias=True)
  (linear_3): Linear(in_features=64, out_features=32, bias=True)
  (linear_combined_1): Linear(in_features=512, out_features=1024, bias=True)
  (linear_combined_2): Linear(in_features=1024, out_features=512, bias=True)
  (mean_linear): Linear(in_features=512, out_features=7, bias=True)
  (log_std_linear): Linear(in_features=512, out_features=7, bias=True)
)
dimensions
3.993584267764982
7.4283495830772015
Parameter
0.3792038889380653
reward distance
0.23448791517189538
dimensions
3.993584267764982
9.812818024590303
Parameter
0.3792038889380653
reward distance
0.43071336337928906
Episode:  0 | Episode Reward:  -0.569286636620711
dimensions
4.220982586762861
6.840684836165117
Parameter
0.3065429642362787
reward distance
…
